…
spatio_kernel_dec: 	3	
drop_path: 	0.1	
alpha: 	0.1	
beta: 	0.3	
offload: 	False	
zero_stage: 	0	
gradient_clipping: 	2.0	
total_length: 	11	
data_type_num: 	4	
data_select_num: 	1	
local_rank: 	0	
data_shape: 	[4, 220, 1181]	
in_shape: 	[10, 1, 128, 128]	
out_shape: 	[1, 1, 128, 128]	
data_use: 	['T']	
device: 	cuda:0	
rank: 	0	
world_size: 	1	
dist: 	True	
batch_size: 	4	
steps_per_epoch: 	248	
by_epoch: 	False	
2024-03-15 11:13:42,901 - Model info:
DeepSpeedEngine(
  (module): SimVP_Model(
    (enc): Encoder(
      (enc): Sequential(
        (0): ConvSC(
          (conv): BasicConv2d(
            (conv): Conv2d(1, 32, kernel_size=(3, 3), stride=(1, 1), padding=(1, 1))
            (norm): GroupNorm(2, 32, eps=1e-05, affine=True)
            (act): SiLU()
          )
        )
        (1): ConvSC(
          (conv): BasicConv2d(
            (conv): Conv2d(32, 32, kernel_size=(3, 3), stride=(2, 2), padding=(1, 1))
            (norm): GroupNorm(2, 32, eps=1e-05, affine=True)
            (act): SiLU()
          )
        )
      )
    )
    (dec): Decoder(
      (dec): Sequential(
        (0): ConvSC(
          (conv): BasicConv2d(
            (conv): Sequential(
              (0): Conv2d(32, 128, kernel_size=(3, 3), stride=(1, 1), padding=(1, 1))
              (1): PixelShuffle(upscale_factor=2)
            )
            (norm): GroupNorm(2, 32, eps=1e-05, affine=True)
            (act): SiLU()
          )
        )
        (1): ConvSC(
          (conv): BasicConv2d(
            (conv): Conv2d(32, 32, kernel_size=(3, 3), stride=(1, 1), padding=(1, 1))
            (norm): GroupNorm(2, 32, eps=1e-05, affine=True)
            (act): SiLU()
          )
        )
      )
      (readout): Conv2d(32, 1, kernel_size=(1, 1), stride=(1, 1))
    )
    (hid): MidMetaNet(
      (enc): Sequential(
        (0): MetaBlock(
          (block): TAUSubBlock(
            (norm1): BatchNorm2d(320, eps=1e-05, momentum=0.1, affine=True, track_running_stats=True)
            (attn): TemporalAttention(
              (proj_1): Conv2d(320, 320, kernel_size=(1, 1), stride=(1, 1))
              (activation): GELU(approximate='none')
              (spatial_gating_unit): SpatiotemporalAttentionModule(
                (conv0): Conv2d(320, 320, kernel_size=(5, 5), stride=(1, 1), padding=(2, 2), groups=320)
                (conv_spatial): Conv2d(320, 320, kernel_size=(7, 7), stride=(1, 1), padding=(9, 9), dilation=(3, 3), groups=320)
                (conv1): Conv2d(320, 320, kernel_size=(1, 1), stride=(1, 1))
                (pool_h): AdaptiveAvgPool2d(output_size=(None, 1))
                (pool_w): AdaptiveAvgPool2d(output_size=(1, None))
                (conv_c): Conv1d(128, 128, kernel_size=(5,), stride=(1,), padding=(2,), bias=False)
                (pool): AdaptiveAvgPool1d(output_size=1)
                (sigmoid): Sigmoid()
              )
              (proj_2): Conv2d(320, 320, kernel_size=(1, 1), stride=(1, 1))
            )
            (drop_path): DropPath(drop_prob=0.010)
            (norm2): BatchNorm2d(320, eps=1e-05, momentum=0.1, affine=True, track_running_stats=True)
            (mlp): MixMlp(
              (fc1): Conv2d(320, 2560, kernel_size=(1, 1), stride=(1, 1))
              (dwconv): DWConv(
                (dwconv): Conv2d(2560, 2560, kernel_size=(3, 3), stride=(1, 1), padding=(1, 1), groups=2560)
              )
              (act): GELU(approximate='none')
              (fc2): Conv2d(2560, 320, kernel_size=(1, 1), stride=(1, 1))
              (drop): Dropout(p=0.0, inplace=False)
            )
          )
          (reduction): Conv2d(320, 256, kernel_size=(1, 1), stride=(1, 1))
        )
        (1): MetaBlock(
          (block): TAUSubBlock(
            (norm1): BatchNorm2d(256, eps=1e-05, momentum=0.1, affine=True, track_running_stats=True)
            (attn): TemporalAttention(
              (proj_1): Conv2d(256, 256, kernel_size=(1, 1), stride=(1, 1))
              (activation): GELU(approximate='none')
              (spatial_gating_unit): SpatiotemporalAttentionModule(
                (conv0): Conv2d(256, 256, kernel_size=(5, 5), stride=(1, 1), padding=(2, 2), groups=256)
                (conv_spatial): Conv2d(256, 256, kernel_size=(7, 7), stride=(1, 1), padding=(9, 9), dilation=(3, 3), groups=256)
                (conv1): Conv2d(256, 256, kernel_size=(1, 1), stride=(1, 1))
                (pool_h): AdaptiveAvgPool2d(output_size=(None, 1))
                (pool_w): AdaptiveAvgPool2d(output_size=(1, None))
                (conv_c): Conv1d(128, 128, kernel_size=(5,), stride=(1,), padding=(2,), bias=False)
                (pool): AdaptiveAvgPool1d(output_size=1)
                (sigmoid): Sigmoid()
              )
              (proj_2): Conv2d(256, 256, kernel_size=(1, 1), stride=(1, 1))
            )
            (drop_path): DropPath(drop_prob=0.023)
            (norm2): BatchNorm2d(256, eps=1e-05, momentum=0.1, affine=True, track_running_stats=True)
            (mlp): MixMlp(
              (fc1): Conv2d(256, 2048, kernel_size=(1, 1), stride=(1, 1))
              (dwconv): DWConv(
                (dwconv): Conv2d(2048, 2048, kernel_size=(3, 3), stride=(1, 1), padding=(1, 1), groups=2048)
              )
              (act): GELU(approximate='none')
              (fc2): Conv2d(2048, 256, kernel_size=(1, 1), stride=(1, 1))
              (drop): Dropout(p=0.0, inplace=False)
            )
          )
        )
        (2): MetaBlock(
          (block): TAUSubBlock(
            (norm1): BatchNorm2d(256, eps=1e-05, momentum=0.1, affine=True, track_running_stats=True)
            (attn): TemporalAttention(
              (proj_1): Conv2d(256, 256, kernel_size=(1, 1), stride=(1, 1))
              (activation): GELU(approximate='none')
              (spatial_gating_unit): SpatiotemporalAttentionModule(
                (conv0): Conv2d(256, 256, kernel_size=(5, 5), stride=(1, 1), padding=(2, 2), groups=256)
                (conv_spatial): Conv2d(256, 256, kernel_size=(7, 7), stride=(1, 1), padding=(9, 9), dilation=(3, 3), groups=256)
                (conv1): Conv2d(256, 256, kernel_size=(1, 1), stride=(1, 1))
                (pool_h): AdaptiveAvgPool2d(output_size=(None, 1))
                (pool_w): AdaptiveAvgPool2d(output_size=(1, None))
                (conv_c): Conv1d(128, 128, kernel_size=(5,), stride=(1,), padding=(2,), bias=False)
                (pool): AdaptiveAvgPool1d(output_size=1)
                (sigmoid): Sigmoid()
              )
              (proj_2): Conv2d(256, 256, kernel_size=(1, 1), stride=(1, 1))
            )
            (drop_path): DropPath(drop_prob=0.036)
            (norm2): BatchNorm2d(256, eps=1e-05, momentum=0.1, affine=True, track_running_stats=True)
            (mlp): MixMlp(
              (fc1): Conv2d(256, 2048, kernel_size=(1, 1), stride=(1, 1))
              (dwconv): DWConv(
                (dwconv): Conv2d(2048, 2048, kernel_size=(3, 3), stride=(1, 1), padding=(1, 1), groups=2048)
              )
              (act): GELU(approximate='none')
              (fc2): Conv2d(2048, 256, kernel_size=(1, 1), stride=(1, 1))
              (drop): Dropout(p=0.0, inplace=False)
            )
          )
        )
        (3): MetaBlock(
          (block): TAUSubBlock(
            (norm1): BatchNorm2d(256, eps=1e-05, momentum=0.1, affine=True, track_running_stats=True)
            (attn): TemporalAttention(
              (proj_1): Conv2d(256, 256, kernel_size=(1, 1), stride=(1, 1))
              (activation): GELU(approximate='none')
              (spatial_gating_unit): SpatiotemporalAttentionModule(
                (conv0): Conv2d(256, 256, kernel_size=(5, 5), stride=(1, 1), padding=(2, 2), groups=256)
                (conv_spatial): Conv2d(256, 256, kernel_size=(7, 7), stride=(1, 1), padding=(9, 9), dilation=(3, 3), groups=256)
                (conv1): Conv2d(256, 256, kernel_size=(1, 1), stride=(1, 1))
                (pool_h): AdaptiveAvgPool2d(output_size=(None, 1))
                (pool_w): AdaptiveAvgPool2d(output_size=(1, None))
                (conv_c): Conv1d(128, 128, kernel_size=(5,), stride=(1,), padding=(2,), bias=False)
                (pool): AdaptiveAvgPool1d(output_size=1)
                (sigmoid): Sigmoid()
              )
              (proj_2): Conv2d(256, 256, kernel_size=(1, 1), stride=(1, 1))
            )
            (drop_path): DropPath(drop_prob=0.049)
            (norm2): BatchNorm2d(256, eps=1e-05, momentum=0.1, affine=True, track_running_stats=True)
            (mlp): MixMlp(
              (fc1): Conv2d(256, 2048, kernel_size=(1, 1), stride=(1, 1))
              (dwconv): DWConv(
                (dwconv): Conv2d(2048, 2048, kernel_size=(3, 3), stride=(1, 1), padding=(1, 1), groups=2048)
              )
              (act): GELU(approximate='none')
              (fc2): Conv2d(2048, 256, kernel_size=(1, 1), stride=(1, 1))
              (drop): Dropout(p=0.0, inplace=False)
            )
          )
        )
        (4): MetaBlock(
          (block): TAUSubBlock(
            (norm1): BatchNorm2d(256, eps=1e-05, momentum=0.1, affine=True, track_running_stats=True)
            (attn): TemporalAttention(
              (proj_1): Conv2d(256, 256, kernel_size=(1, 1), stride=(1, 1))
              (activation): GELU(approximate='none')
              (spatial_gating_unit): SpatiotemporalAttentionModule(
                (conv0): Conv2d(256, 256, kernel_size=(5, 5), stride=(1, 1), padding=(2, 2), groups=256)
                (conv_spatial): Conv2d(256, 256, kernel_size=(7, 7), stride=(1, 1), padding=(9, 9), dilation=(3, 3), groups=256)
                (conv1): Conv2d(256, 256, kernel_size=(1, 1), stride=(1, 1))
                (pool_h): AdaptiveAvgPool2d(output_size=(None, 1))
                (pool_w): AdaptiveAvgPool2d(output_size=(1, None))
                (conv_c): Conv1d(128, 128, kernel_size=(5,), stride=(1,), padding=(2,), bias=False)
                (pool): AdaptiveAvgPool1d(output_size=1)
                (sigmoid): Sigmoid()
              )
              (proj_2): Conv2d(256, 256, kernel_size=(1, 1), stride=(1, 1))
            )
            (drop_path): DropPath(drop_prob=0.061)
            (norm2): BatchNorm2d(256, eps=1e-05, momentum=0.1, affine=True, track_running_stats=True)
            (mlp): MixMlp(
              (fc1): Conv2d(256, 2048, kernel_size=(1, 1), stride=(1, 1))
              (dwconv): DWConv(
                (dwconv): Conv2d(2048, 2048, kernel_size=(3, 3), stride=(1, 1), padding=(1, 1), groups=2048)
              )
              (act): GELU(approximate='none')
              (fc2): Conv2d(2048, 256, kernel_size=(1, 1), stride=(1, 1))
              (drop): Dropout(p=0.0, inplace=False)
            )
          )
        )
        (5): MetaBlock(
          (block): TAUSubBlock(
            (norm1): BatchNorm2d(256, eps=1e-05, momentum=0.1, affine=True, track_running_stats=True)
            (attn): TemporalAttention(
              (proj_1): Conv2d(256, 256, kernel_size=(1, 1), stride=(1, 1))
              (activation): GELU(approximate='none')
              (spatial_gating_unit): SpatiotemporalAttentionModule(
                (conv0): Conv2d(256, 256, kernel_size=(5, 5), stride=(1, 1), padding=(2, 2), groups=256)
                (conv_spatial): Conv2d(256, 256, kernel_size=(7, 7), stride=(1, 1), padding=(9, 9), dilation=(3, 3), groups=256)
                (conv1): Conv2d(256, 256, kernel_size=(1, 1), stride=(1, 1))
                (pool_h): AdaptiveAvgPool2d(output_size=(None, 1))
                (pool_w): AdaptiveAvgPool2d(output_size=(1, None))
                (conv_c): Conv1d(128, 128, kernel_size=(5,), stride=(1,), padding=(2,), bias=False)
                (pool): AdaptiveAvgPool1d(output_size=1)
                (sigmoid): Sigmoid()
              )
              (proj_2): Conv2d(256, 256, kernel_size=(1, 1), stride=(1, 1))
            )
            (drop_path): DropPath(drop_prob=0.074)
            (norm2): BatchNorm2d(256, eps=1e-05, momentum=0.1, affine=True, track_running_stats=True)
            (mlp): MixMlp(
              (fc1): Conv2d(256, 2048, kernel_size=(1, 1), stride=(1, 1))
              (dwconv): DWConv(
                (dwconv): Conv2d(2048, 2048, kernel_size=(3, 3), stride=(1, 1), padding=(1, 1), groups=2048)
              )
              (act): GELU(approximate='none')
              (fc2): Conv2d(2048, 256, kernel_size=(1, 1), stride=(1, 1))
              (drop): Dropout(p=0.0, inplace=False)
            )
          )
        )
        (6): MetaBlock(
          (block): TAUSubBlock(
            (norm1): BatchNorm2d(256, eps=1e-05, momentum=0.1, affine=True, track_running_stats=True)
            (attn): TemporalAttention(
              (proj_1): Conv2d(256, 256, kernel_size=(1, 1), stride=(1, 1))
              (activation): GELU(approximate='none')
              (spatial_gating_unit): SpatiotemporalAttentionModule(
                (conv0): Conv2d(256, 256, kernel_size=(5, 5), stride=(1, 1), padding=(2, 2), groups=256)
                (conv_spatial): Conv2d(256, 256, kernel_size=(7, 7), stride=(1, 1), padding=(9, 9), dilation=(3, 3), groups=256)
                (conv1): Conv2d(256, 256, kernel_size=(1, 1), stride=(1, 1))
                (pool_h): AdaptiveAvgPool2d(output_size=(None, 1))
                (pool_w): AdaptiveAvgPool2d(output_size=(1, None))
                (conv_c): Conv1d(128, 128, kernel_size=(5,), stride=(1,), padding=(2,), bias=False)
                (pool): AdaptiveAvgPool1d(output_size=1)
                (sigmoid): Sigmoid()
              )
              (proj_2): Conv2d(256, 256, kernel_size=(1, 1), stride=(1, 1))
            )
            (drop_path): DropPath(drop_prob=0.087)
            (norm2): BatchNorm2d(256, eps=1e-05, momentum=0.1, affine=True, track_running_stats=True)
            (mlp): MixMlp(
              (fc1): Conv2d(256, 2048, kernel_size=(1, 1), stride=(1, 1))
              (dwconv): DWConv(
                (dwconv): Conv2d(2048, 2048, kernel_size=(3, 3), stride=(1, 1), padding=(1, 1), groups=2048)
              )
              (act): GELU(approximate='none')
              (fc2): Conv2d(2048, 256, kernel_size=(1, 1), stride=(1, 1))
              (drop): Dropout(p=0.0, inplace=False)
            )
          )
        )
        (7): MetaBlock(
          (block): TAUSubBlock(
            (norm1): BatchNorm2d(256, eps=1e-05, momentum=0.1, affine=True, track_running_stats=True)
            (attn): TemporalAttention(
              (proj_1): Conv2d(256, 256, kernel_size=(1, 1), stride=(1, 1))
              (activation): GELU(approximate='none')
              (spatial_gating_unit): SpatiotemporalAttentionModule(
                (conv0): Conv2d(256, 256, kernel_size=(5, 5), stride=(1, 1), padding=(2, 2), groups=256)
                (conv_spatial): Conv2d(256, 256, kernel_size=(7, 7), stride=(1, 1), padding=(9, 9), dilation=(3, 3), groups=256)
                (conv1): Conv2d(256, 256, kernel_size=(1, 1), stride=(1, 1))
                (pool_h): AdaptiveAvgPool2d(output_size=(None, 1))
                (pool_w): AdaptiveAvgPool2d(output_size=(1, None))
                (conv_c): Conv1d(128, 128, kernel_size=(5,), stride=(1,), padding=(2,), bias=False)
                (pool): AdaptiveAvgPool1d(output_size=1)
                (sigmoid): Sigmoid()
              )
              (proj_2): Conv2d(256, 256, kernel_size=(1, 1), stride=(1, 1))
            )
            (drop_path): DropPath(drop_prob=0.100)
            (norm2): BatchNorm2d(256, eps=1e-05, momentum=0.1, affine=True, track_running_stats=True)
            (mlp): MixMlp(
              (fc1): Conv2d(256, 2048, kernel_size=(1, 1), stride=(1, 1))
              (dwconv): DWConv(
                (dwconv): Conv2d(2048, 2048, kernel_size=(3, 3), stride=(1, 1), padding=(1, 1), groups=2048)
              )
              (act): GELU(approximate='none')
              (fc2): Conv2d(2048, 256, kernel_size=(1, 1), stride=(1, 1))
              (drop): Dropout(p=0.0, inplace=False)
            )
          )
          (reduction): Conv2d(256, 320, kernel_size=(1, 1), stride=(1, 1))
        )
      )
    )
  )
)
| module                           | #parameters or shape   | #flops     |
|:---------------------------------|:-----------------------|:-----------|
| module                           | 11.905M                | 49.365G    |
|  enc.enc                         |  9.696K                |  0.457G    |
|   enc.enc.0.conv                 |   0.384K               |   73.4M    |
…
